assets/ppo_checkpoint_37.10.pth (torch_old, 603210 bytes, 12 tensors)

log_std f4 [1, 4]
000000 ae 0b 65 be 09 ac 97 be 06 7e 0e bf 6d 37 04 bf
       -0.22367737 -0.2962344 -0.55661047 -0.51647073

critic.0.weight f4 [256, 33]
000000 7a b2 93 3e 52 87 01 bc e4 ad 25 3f a2 67 a6 bd
       0.28847104 -0.007905798 0.6471846 -0.08125235
000010 cc 22 e4 3e 3c db 63 bf 83 33 0f 3f d9 cc 6e bd
       0.44557798 -0.890064 0.55937976 -0.058300827
000020 e7 85 6d be a7 8d 45 bd 24 2c f5 3c 98 cd 34 bd
       -0.23195611 -0.048230793 0.029928274 -0.044141382
000030 a0 af 88 3d 3e 12 72 3e 71 eb 00 3f a7 4b 4a 3e
       0.06674123 0.23639771 0.50359255 0.19755422
000040 98 c7 a0 3e d4 91 8b bd c1 bb 02 bf ff a3 1f bf
       0.31402278 -0.06814924 -0.5106774 -0.62359613
000050 f4 24 98 bd a9 41 88 3d 6c d5 04 3b 14 6f 45 3d
       -0.07428923 0.06653149 0.002026881 0.048201635
000060 70 c7 20 3d 27 de 7e 3d 74 26 59 3e 48 10 80 3e
       0.0392527 0.06222358 0.21206075 0.25012422
000070 bb 2a 86 be ef 11 23 be b7 c7 92 bd f8 17 51 3d
       -0.26204476 -0.1592481 -0.07166999 0.05104825
000080 a3 6b 82 3d a2 51 98 be ca b1 b8 3e 60 15 be bd
       0.06368186 -0.2974978 0.36073142 -0.09281421
000090 93 24 14 bf 31 e2 a8 3d 36 9d a1 3e 59 c5 18 be
       -0.5786831 0.082462676 0.31565255 -0.14919032
0000a0 c2 29 51 3e f6 34 03 bd a5 69 0d 3e 50 28 1e bd
       0.20426086 -0.03203293 0.13809831 -0.038612664
0000b0 a9 b2 de bd 61 4d 87 3e e6 c4 dc bd bc 22 6f 3f
       -0.108739205 0.26426223 -0.10779743 0.93412375
0000c0 53 24 90 3d c5 98 40 3f db a7 92 3e 4a 6c 97 3d
       0.07038178 0.7523311 0.2864369 0.073937014
0000d0 35 a9 0d 3f bf 11 4e 3d 85 e6 92 3d 1d 28 3d bd
       0.55336314 0.050309893 0.07172874 -0.046180833
0000e0 d2 d9 60 be d3 1a a5 bc 9d b4 5a 3e 64 cd c4 be
       -0.21958092 -0.020154392 0.21357961 -0.3843795
0000f0 04 e8 96 3d 29 05 9f bd 30 2a cf 3c f4 18 a6 be
       0.07368472 -0.07764656 0.025288671 -0.32440913
000100 6c 96 0d 3e d3 a5 93 3d 0a 36 21 be da f4 ac 3e
       0.13826913 0.07209363 -0.1574327 0.33780557
000110 dd 9f 9e 3d cb 65 b4 be 03 ae 94 be 47 21 04 3e
       0.07745335 -0.35233912 -0.2903901 0.1290332
000120 16 8b 95 3d 4c 78 64 bd ce 22 ca be c0 9e a4 bd
       0.07301919 -0.055778787 -0.3947968 -0.08038092
000130 4a e1 c6 3c 91 ac be 3d 0c 38 d8 3d 31 82 79 3e
       0.024277348 0.09310258 0.10557565 0.2436607
000140 50 01 b6 3e 87 3b 3d bd f5 ba 77 3e c4 02 57 bf
       0.35547876 -0.046199348 0.24192412 -0.83988595
000150 12 c2 b0 3e 1d 03 dc be 12 2b 1f be cf 82 48 be
       0.34523064 -0.42971125 -0.15543774 -0.1958115
000160 2f 47 88 bd 4a ca b0 3e d2 bb 32 bd d1 bb 1c 3e
       -0.06654202 0.34529334 -0.04363615 0.15306021
000170 1c a6 81 bd 78 88 28 3f 3d 1e 92 be a2 05 a1 bd
       -0.06330511 0.65833235 -0.28538695 -0.078624025
000180 7b 53 bd be 70 57 07 3d c5 88 36 3f f9 25 6f 3e
       -0.36977753 0.03304237 0.71302444 0.23354329
000190 84 46 0a 3f 91 12 f2 bc d7 b0 b6 be 27 86 31 bd
       0.5401385 -0.029549869 -0.35681793 -0.04334083
0001a0 80 41 3a be 72 44 47 3d 05 58 26 be 89 4f 19 be
       -0.18189049 0.04864926 -0.16244514 -0.14971747
0001b0 f0 3c fb 3d 32 e2 75 bd 23 44 a2 3c 7b 69 f8 bb
       0.12267482 -0.06003017 0.01980788 -0.0075809336
0001c0 b9 97 d1 3e bf 4f 5b 3d 3c f3 c7 bd 40 21 68 bf
       0.40936068 0.05354285 -0.0976319 -0.90675735
0001d0 3d f2 20 3f 3e a3 38 bf 10 6b ab be ca b0 93 bd
       0.62869626 -0.7212409 -0.3348012 -0.07211454
0001e0 6d 7e f1 3d 13 d7 b0 3d 40 93 ed 3d 2e 11 c2 bc
       0.11791692 0.08634772 0.11600351 -0.023689833
0001f0 cf 16 89 3d 07 de d1 be 2b cf 0e 3f 6a 3f 84 3d
       0.066938035 -0.40989706 0.55784863 0.06457408
000200 94 ad 05 3e 65 86 a2 be ec 15 22 3e f0 d4 76 3f
       0.13054496 -0.3174316 0.15828675 0.96418667
000210 00 ae 0d 3e 5f 40 be 3e f7 1b 21 bc f4 92 f9 be
       0.13835907 0.37158486 -0.0098333275 -0.4874493
000220 68 2c ad bd 2d a2 c8 3e f4 f8 11 3e 04 dc c3 3c
       -0.084557354 0.3918623 0.14255124 0.023908623
000230 e2 45 82 bd cf 9e de 39 b9 a9 b4 bc 9c 49 b5 3b
       -0.06360985 0.0004246146 -0.022053586 0.0055324566
000240 29 4c b2 bd 01 2c 5e be 33 bc 30 3f 05 b8 3b be
       -0.08705933 -0.21696474 0.6903717 -0.18331917
000250 e8 22 35 bc 0a 3f 4b 3e 65 3e 1d bf d4 aa 25 bf
       -0.011055686 0.19848266 -0.6142333 -0.6471379
000260 60 7c ca bc 2f e7 26 3d bb 5c e6 3d 28 da dd 3a
       -0.02471751 0.040747818 0.11248156 0.0016925978
000270 90 dd 1c 3d a2 0c 95 bd 6b 75 44 be d3 2d b1 3e
       0.038297236 -0.072778 -0.19185416 0.34605274
000280 38 0f 04 3e 98 64 09 be 89 04 00 bf 44 77 f8 3d
       0.1289643 -0.1341728 -0.5000692 0.12132123
000290 61 6a 1e be dc 97 85 be 68 24 09 bd fe ff 32 be
       -0.15470268 -0.26092422 -0.033481985 -0.17480466
0002a0 c4 d2 34 be fd b5 44 be e6 0c 4b 3d 24 3d 11 3e
       -0.17658526 -0.19210048 0.049572848 0.1418348
0002b0 7b ab 08 be 58 ee 6d be f2 89 a3 3e 9f 70 27 3e
       -0.13346665 -0.23235452 0.3194118 0.16351555
0002c0 1d de 26 bd 7b a0 f0 3d 9f 5d fe 3d 92 d9 ac 3e
       -0.040739167 0.11749359 0.124202006 0.33759743
0002d0 a0 c8 5f 3d 17 1c 3e bf a2 fc 4e bf 3c 41 85 3e
       0.05463469 -0.7426161 -0.8085424 0.26026332
0002e0 95 1e 95 bf 97 89 95 3d a9 93 03 3e 1b e3 d3 bd
       -1.1649958 0.07301634 0.12849297 -0.10346051
0002f0 de cb 9d 3e 6d 8d 61 bd f9 2c 5d 3e 9f ad 25 be
       0.308196 -0.055066515 0.21599187 -0.16179512
000300 25 15 90 3e 23 1c 5b 3e 84 9c 8b bd d9 bc 91 be
       0.28141132 0.21397452 -0.06816962 -0.28464392
000310 78 ec 2a 3d 04 e0 3c 3f fd 43 13 bf 64 5e bd 3e
       0.04172942 0.7377932 -0.57525617 0.36986077
000320 87 77 f7 be 14 81 d6 be 57 bf 99 be c2 6f ac bd
       -0.4833338 -0.41895354 -0.30028793 -0.084197536
000330 14 03 92 be aa 96 d4 bd da a9 98 3e 55 d6 dc bd
       -0.28517973 -0.103802994 0.29817086 -0.10783068
000340 0c 6c 36 3d 45 fb bc 3d 81 ee b8 bc 4c 63 11 bd
       0.044536635 0.09227613 -0.022574665 -0.035495088
000350 6b 90 4f 3e b3 90 0a bf f1 0b 84 bf 3c 54 23 3e
       0.20269935 -0.54127043 -1.0316144 0.15950102
000360 05 d4 0c 3e 92 e9 16 bf 94 b5 e5 bc 8c 7f 4f 3d
       0.13752754 -0.5895015 -0.028040685 0.050658748
000370 06 68 ee bc 2f 0b 99 3d d0 96 a3 bc 46 ba 94 3d
       -0.029102337 0.07472836 -0.019969374 0.07262091
000380 d9 f3 33 3e a6 9e b4 3e 43 8d 0d 3f 76 65 83 bd
       0.17573489 0.3527729 0.55293673 -0.064158365
000390 8c 8b 22 be 04 41 29 3d cb 78 3a be de 12 8c be
       -0.15873545 0.04132177 -0.18210141 -0.27358145
0003a0 0c 38 93 3e 44 49 17 3e 4f 78 e1 be b5 7f 90 be
       0.28753698 0.14774042 -0.440371 -0.28222433
0003b0 fb 9e 94 3f 89 48 cb 3e cf a2 b8 3c 6d 8a 19 3c
       1.1611017 0.39703777 0.02253857 0.009371382
0003c0 90 2f 84 3d b7 33 04 3d b4 d7 3f 3e 09 a2 13 3d
       0.06454384 0.03227588 0.18734628 0.0360432
0003d0 55 79 f9 3e ab aa df 3e a2 80 ec be e4 30 e0 3e
       0.48725381 0.43684897 -0.4619189 0.437873
0003e0 7a dc 21 be db e8 b9 3c 55 d5 86 be 05 fa e7 bb
       -0.15806761 0.022694042 -0.26334634 -0.007079365
0003f0 27 24 09 3d 7f 8a 49 3d 5e 26 9a 3c a3 d3 d4 3d
       0.033481743 0.049204346 0.018817123 0.10391929

critic.0.bias f4 [256]
000000 4d fb 29 bd 0e 55 61 bd 89 a6 e6 be 05 f3 11 bf
       -0.041499425 -0.055012755 -0.4504893 -0.57011443
000010 fb d7 cf be 76 3a 39 be e6 59 2a be 52 e5 d3 be
       -0.40594468 -0.18088707 -0.16635856 -0.41385895
000020 b8 55 03 bf b3 9d b8 be 19 5f 80 be 1a ca 10 bf
       -0.5130267 -0.36057815 -0.25072554 -0.5655838
000030 64 2e c5 be 6c 76 c8 be 3f f8 0a bf 11 d7 f2 be
       -0.38511956 -0.3915285 -0.54285043 -0.47429708
000040 d9 3d 76 be f2 61 b8 be f5 c0 f7 be ee 46 08 bf
       -0.2404703 -0.36012226 -0.48389402 -0.5323323
000050 76 4a 50 be 73 64 0c bf ab 06 c8 be 00 e1 0d bf
       -0.20340905 -0.54840773 -0.39067587 -0.5542145
000060 2e 91 1e bf 46 fb d3 be 46 cb d9 be 53 a8 12 bf
       -0.61940277 -0.41402644 -0.42537898 -0.5728809
000070 a2 aa f1 be 61 1f f2 be c2 22 a8 be 79 3a bb be
       -0.47200495 -0.47289565 -0.32839018 -0.3656805
000080 82 8e ad be fe 59 ea be 4e 9b 23 bf ef c3 c7 be
       -0.33897787 -0.45771784 -0.6390885 -0.39016673
000090 cc 6e cd be 58 55 1c bf 19 f3 5e be bd e3 86 be
       -0.40123594 -0.61067724 -0.21772422 -0.26345626
0000a0 b8 96 13 be cf 36 ce bd 00 b2 d8 be e8 b2 d0 be
       -0.14412963 -0.10069048 -0.42323303 -0.40761495
0000b0 9a be 8a be af 0f aa be b1 0c e6 be f3 8b ac be
       -0.27098542 -0.3321509 -0.44931558 -0.33700523
0000c0 81 7f 00 be 60 16 d4 be 21 48 6d be 36 48 9c be
       -0.12548639 -0.4142332 -0.23172046 -0.30523843
0000d0 d2 4c ac be 66 bd fa be fc ef 6a be 56 e8 53 be
       -0.3365236 -0.48972625 -0.2294311 -0.20694098
0000e0 4e 90 19 bf 76 87 60 be 6c 4a ea be a2 2a e6 be
       -0.59985816 -0.21926674 -0.45759904 -0.449544
0000f0 44 41 bc be 76 e5 24 be 7f cd c4 be 71 46 c7 be
       -0.36768544 -0.16103157 -0.3843803 -0.3892093
000100 f4 3e b2 be ef be a0 bd c1 ef ee bd 7a 76 15 bf
       -0.34813654 -0.07848918 -0.11666823 -0.58383906
000110 aa 76 9e 3e 23 d9 45 3d 9a 62 17 bf 36 4d 36 be
       0.30949908 0.04830278 -0.5913483 -0.17802891
000120 11 37 48 be fc dd 8f be 9d ed 3f be 7e 93 b7 be
       -0.19552256 -0.28099048 -0.18742986 -0.35854715
000130 1c 0a f8 3d 3c 26 7d bd c1 0c 89 be f7 63 06 bf
       0.12111303 -0.06180404 -0.26767543 -0.52496284
000140 36 5b ba be c8 45 e5 be e0 c5 a3 be 15 36 77 be
       -0.36397713 -0.447798 -0.31986904 -0.24141724
000150 c2 74 9e be 12 be 17 bf 4b 02 ce bd 94 04 8a bd
       -0.30948454 -0.592744 -0.10059031 -0.067391545
000160 16 da 94 be 69 6a a6 be fd d8 10 be 2f 0d 59 be
       -0.29072636 -0.3250306 -0.14145274 -0.21196435
000170 13 26 a0 be d8 58 bb be 17 13 6e 3c 50 1a ea bd
       -0.31279048 -0.3659122 0.014530919 -0.114308
000180 64 43 0f bf 8d 12 8b be 78 8f 46 be 05 ad 40 be
       -0.55962205 -0.2716259 -0.19390666 -0.18816002
000190 eb b5 ce be ba 45 9a be a5 08 cf be ca 2d 21 be
       -0.40373167 -0.30131322 -0.40436283 -0.15740123
0001a0 4c 3d ed be d2 be c5 3d 84 c4 d4 bd 35 cc c2 be
       -0.46335828 0.09655537 -0.10389045 -0.38046423
0001b0 8a 93 a6 be 4f 46 c2 be 3f b5 e8 be 46 f1 bc be
       -0.32534438 -0.37944266 -0.4545078 -0.36902827
0001c0 cb 5d b8 bd 48 b6 a9 be 24 78 a8 be aa 8f d3 be
       -0.090022646 -0.33146882 -0.3290416 -0.41320544
0001d0 c6 09 0d bf 39 cc 32 be 23 77 7b be 44 69 c3 be
       -0.5509304 -0.17460717 -0.24557166 -0.3816625
0001e0 20 41 bb be 5b 27 a5 be 81 11 a5 be 6c f3 50 be
       -0.36573124 -0.32256588 -0.32239917 -0.20405358
0001f0 6c 3d d5 be 41 f5 d3 be 2e 74 9b be 35 fe 14 bf
       -0.41648424 -0.4139805 -0.30362076 -0.5820039
000200 94 b5 11 bf 45 73 db be 6d da 01 be c8 b3 c3 bd
       -0.5691769 -0.4286138 -0.12680979 -0.09555775
000210 78 85 8e be 55 a7 d9 ba 82 47 5d be 81 6a 80 bd
       -0.27836204 -0.0016605655 -0.2160931 -0.06270314
000220 45 a9 88 be df 56 c8 be b8 fd d3 be 7f 2f 42 be
       -0.26691642 -0.39128777 -0.4140451 -0.18963431
000230 f9 02 30 be 5f 89 d4 be 1c a0 76 be 40 54 cb be
       -0.17188634 -0.41511056 -0.24084514 -0.39712715
000240 58 25 d2 bd f4 70 cf be d5 68 9f be 4e 67 8c be
       -0.10261029 -0.40515864 -0.31134668 -0.27422565
000250 1a 6d fd be 2d 58 4c be 1a 69 27 be 72 52 f0 be
       -0.494973 -0.19955511 -0.16348687 -0.469379
000260 78 19 b4 be de ec b0 be e3 96 1e bd 0a 18 09 be
       -0.3517568 -0.34555715 -0.038718116 -0.13388076
000270 e3 62 e3 be d6 52 09 bf 08 c2 7e be fa 14 02 bd
       -0.44411382 -0.5364202 -0.24878705 -0.031758286
000280 59 9b 92 be 1b 6e 7b be c6 dc c0 3d f5 bd 07 bf
       -0.28634146 -0.2455372 0.09417109 -0.53024226
000290 89 db 2f bc 8e f5 d2 be 51 4b 2d be fa 3f 53 be
       -0.010733494 -0.41202968 -0.16923262 -0.20629874
0002a0 db 39 8b be 3c b3 fc bd 0a 2a 35 be 3a 72 80 be
       -0.27192578 -0.12338874 -0.17691818 -0.25087148
0002b0 68 6c b5 be 04 35 35 bf 2a e8 0e bf 14 64 fe be
       -0.3543427 -0.7078402 -0.55823004 -0.4968573
0002c0 95 8a 10 be c6 9b b2 be d1 46 3a 3d 77 e4 e5 be
       -0.14115365 -0.3488447 0.045477692 -0.44900867
0002d0 fe 69 6b be 03 fb 40 be 93 75 03 be 39 47 68 be
       -0.22989652 -0.18845753 -0.1283782 -0.2268342
0002e0 4a 28 c8 be 87 ec 0c bf d1 bc d2 be 67 c0 f7 be
       -0.39093238 -0.5504841 -0.4115968 -0.4838898
0002f0 36 e1 04 3e c7 eb 81 be de 52 84 be f0 12 af be
       0.12976536 -0.25375196 -0.25844473 -0.34194136
000300 27 f4 ab be bb e5 ea be 03 2a 93 be d4 0d a0 be
       -0.3358471 -0.45878395 -0.2874299 -0.3126055
000310 15 8e bb be b8 4a 94 bd 60 82 ae 3c c3 1a 7c be
       -0.36631837 -0.07240814 0.021302402 -0.24619584
000320 f7 c2 1e be f1 d6 df be 29 bd af be ec 36 14 bf
       -0.1550406 -0.43718675 -0.34324005 -0.57896304
000330 b4 7c d1 be f9 3c bb be ca 89 04 bf 5f 27 23 3e
       -0.40915453 -0.36569956 -0.5177275 0.15932988
000340 78 16 9a be a5 6c fc be 8c a9 2e 3e 8b f5 38 be
       -0.30095267 -0.4930164 0.17056865 -0.18062417
000350 e0 ac 60 bc 51 8e 26 bf 22 24 b8 be c6 01 75 3d
       -0.013713092 -0.6506091 -0.35965067 0.059816144
000360 5e 38 a9 be c4 d7 57 be 24 47 ee be 9c a4 98 be
       -0.33050817 -0.21078402 -0.4653865 -0.29813087
000370 1e b3 04 bf c9 54 bd be 7a 90 dc be 69 18 37 3e
       -0.5183581 -0.36978748 -0.43078977 0.17880405
000380 5d ee e1 be d6 2f a4 be 13 b4 68 be cd 18 07 bf
       -0.4412717 -0.32067746 -0.22724943 -0.5277222
000390 91 24 01 bf 80 b2 61 be 04 53 db be 48 62 83 bd
       -0.5044642 -0.22040749 -0.42836773 -0.0641523
0003a0 09 70 da 3d 6f de ab be f6 e3 38 be 6a ac 05 bf
       0.106659 -0.3356814 -0.1805571 -0.5221621
0003b0 32 50 73 be f3 37 04 bf 88 aa b5 be 56 2e cd be
       -0.23761061 -0.5164787 -0.35481668 -0.40074414
0003c0 d5 eb 5c be c2 9a ac be 08 16 ff be b5 27 06 be
       -0.21574338 -0.3371182 -0.49821496 -0.13101085
0003d0 22 ef a3 be 95 bc bf 3d 8f f4 d5 be 77 2f b7 be
       -0.3201838 0.09362141 -0.41788146 -0.357784
0003e0 a3 b1 ab bd 74 18 9f be c3 31 5d be 84 52 ce be
       -0.08383491 -0.31073344 -0.21601014 -0.4029733
0003f0 f1 70 12 bf ac 68 f4 be 92 bf d3 be e3 8a 4a be
       -0.57203585 -0.47736108 -0.41357094 -0.19779544

critic.2.weight f4 [256, 256]
000000 81 b3 44 be c8 2d 40 3d 02 80 93 be ce 2c 51 3d
       -0.192091 0.04691866 -0.288086 0.05106812
000010 64 63 49 3d 87 3b 33 be 22 fe 47 3d 16 64 37 bd
       0.049167052 -0.17503177 0.048826344 -0.044773184
000020 b5 e7 e1 3c 3f 98 c3 bc 54 1e 81 bd 07 86 09 be
       0.027576307 -0.023876308 -0.06304613 -0.13430034
000030 cd e7 24 bd 7f 55 2b bd c0 d2 6e be 9b c0 b0 bd
       -0.040260125 -0.041829582 -0.23322582 -0.086304866
000040 35 5c 32 bd af 1e f2 bc 72 79 f2 3c ac 5a a3 bc
       -0.043544967 -0.029555647 0.029598925 -0.019940697
000050 d0 80 5b be df 72 e2 bd 15 41 1b be ab 2c bd 3c
       -0.21435857 -0.11057066 -0.15161546 0.023092588
000060 43 94 0f bd c2 7c 76 be 27 0b 39 bc 16 28 c6 bb
       -0.035053503 -0.24071029 -0.011294163 -0.006047259
000070 6a 6a a8 bd b9 37 5d bd 46 50 5f bc 7a 2a 15 3e
       -0.08223422 -0.05400822 -0.0136299785 0.14566985
000080 ed 7f 15 bd 23 ba 63 3d f3 22 8d be 04 c9 1a bd
       -0.036498953 0.055597436 -0.27565727 -0.03778936
000090 95 a4 b2 3c 97 05 0f bc 58 b6 3b be d3 eb c3 be
       0.021806994 -0.00872936 -0.18331277 -0.38265857
0000a0 1b 73 08 bd 88 14 85 bc 45 9e 2a bd 16 17 80 3c
       -0.033312898 -0.016245142 -0.041654844 0.015636008
0000b0 1c 45 ef bd 91 8b 25 bd 78 58 98 bc 26 e8 60 bd
       -0.116831034 -0.040416304 -0.018596873 -0.054908894
0000c0 0c 11 63 be b3 e4 8b bd 8b 11 2f 3e 3f 35 e9 bd
       -0.22174472 -0.0683073 0.17096536 -0.11387109
0000d0 e9 4f 6f b9 db 60 03 be 41 78 03 bd 32 af cc bc
       -0.00022822585 -0.12829916 -0.032097105 -0.024985883
0000e0 76 c9 1c be 2b 0b ae be 40 e0 81 3a 1f 6b b5 bd
       -0.15311226 -0.33992895 0.0009908751 -0.08858322
0000f0 38 f6 a5 be 19 a9 da bd 95 a1 38 bd 2d ca 81 bd
       -0.32414412 -0.10676784 -0.04507597 -0.0633739
000100 7f 9c 80 bd 65 f4 10 bd f1 7c e3 be 69 ff 5e bd
       -0.06279849 -0.035389323 -0.4443126 -0.054442797
000110 d4 2a 1a 3d 48 9b b2 bd 17 7d 8e be 35 31 b5 bd
       0.0376385 -0.08721024 -0.2782981 -0.08847276
000120 ac 60 67 3e 3b c6 b3 bd 74 a2 99 bc c6 82 8e 3a
       0.22595471 -0.08778044 -0.018754221 0.0010872714
000130 50 bb 5b 3e 16 bd e2 bd ae da 21 3d fa e1 0a bd
       0.21458173 -0.110712215 0.03951519 -0.033906914
000140 be d5 3a bd 4b 4a 60 3e 2e 9f 89 3d 5d 9f ae be
       -0.045613997 0.2190334 0.06719814 -0.3410596
000150 81 f4 89 3c 9a 0e 97 bd 03 21 6a be 07 98 76 bd
       0.016840221 -0.07375832 -0.22864155 -0.06020358
000160 e9 62 94 bc c1 75 7c bd d4 78 9e bd 07 7a 70 be
       -0.01811357 -0.061635736 -0.0773789 -0.2348405
000170 d2 ff 0d be 6c aa 38 3e 2b 37 16 be 04 74 2a be
       -0.13867119 0.18033761 -0.14669482 -0.16645819
000180 9e c4 78 bd d8 86 46 3d 7d 5c a9 be 4c df 64 3d
       -0.060734384 0.04846844 -0.33078375 0.055877015
000190 08 a9 e6 bd be 30 78 bc 84 b0 03 bc 2f 4f 83 bd
       -0.11262709 -0.01514834 -0.00803769 -0.064115874
0001a0 01 fc 0c 3b a1 57 d4 bb 05 5b 1d be 36 1a a2 bc
       0.002151251 -0.0064801727 -0.15366752 -0.019787889
0001b0 d0 49 88 3d ec be b8 bc 7d ea 05 be a6 4b 15 be
       0.066547036 -0.022551976 -0.13077731 -0.14579639
0001c0 32 92 e9 3d 11 1f 9b 3d 12 3f 71 bd 2e dd 15 3d
       0.11404838 0.07574285 -0.05889804 0.036587887
0001d0 22 4c 21 bc 06 d1 86 be 1d de 4a bd d0 92 2d 3d
       -0.009844812 -0.26331347 -0.04952823 0.04237634
0001e0 67 a1 a2 3c bb 4c 8c bd a4 63 ee bd 03 ab e1 bc
       0.019852353 -0.06850573 -0.11640099 -0.027547365
0001f0 4c 7a 31 bd 1f 4b 0c be 56 51 90 bd a5 04 6a bd
       -0.043329522 -0.13700531 -0.070467636 -0.057133336
000200 f7 70 98 be 6c a9 07 3e cf 55 2f be 3a 4f f4 b9
       -0.29773685 0.13248223 -0.17122577 -0.00046598335
000210 d3 86 4a be fc d8 32 be 83 d9 81 3e b8 94 12 3e
       -0.19777994 -0.17465585 0.2536126 0.14314544
000220 2e c7 a0 bd 9a fc 74 bd b3 cc 32 bb 85 f3 ac bd
       -0.078504905 -0.059811212 -0.0027282655 -0.08444885
000230 24 f6 d4 3b f2 a8 6c be d0 fb 0f 3c 87 12 83 3d
       0.006499069 -0.23111323 0.008788064 0.06400018
000240 6c 8b 13 3e f5 4b bd 3c 62 c3 13 bd 72 f7 4d bd
       0.14408654 0.023107508 -0.036075003 -0.05028481
000250 74 f9 1e bc ef a1 c6 3c 12 44 a9 bd cb e0 9e bc
       -0.009703029 0.024247138 -0.082649365 -0.019394299
000260 4a d7 00 bd 83 c4 32 3d 1d 31 1a bf b5 ab d5 bd
       -0.031455316 0.04364444 -0.6023119 -0.10433141
000270 c3 b6 fe bd 91 39 e2 bc e0 b2 ec 3d d8 99 39 bd
       -0.12437203 -0.02761534 0.11557555 -0.045312732
000280 9b 84 59 be 7c 2a d9 bd 1b 70 12 be f7 1f 64 3d
       -0.21241991 -0.106038064 -0.14300577 0.055694547
000290 b1 e9 01 bd 18 80 59 bd 7e 54 84 be a4 f5 b3 bd
       -0.031717006 -0.053100675 -0.25845712 -0.087870866
0002a0 6d 14 b1 bc 72 1b 73 be 05 86 11 3b f5 d1 1e bc
       -0.021616185 -0.23740938 0.0022205126 -0.009693612
0002b0 57 c0 4e 3e ad 88 d1 3c 50 1a a0 bd 0b 05 db 3d
       0.2019056 0.025577867 -0.07817519 0.10694321
0002c0 20 32 fd bc 53 7a 03 be 52 3c ba be f7 84 3b 3c
       -0.03090769 -0.12839632 -0.36374146 0.0114452755
0002d0 8b cb 42 bd 3f da 61 be a9 da da bd df ef 93 be
       -0.047557395 -0.2205591 -0.10686237 -0.28893945
0002e0 e2 1f 8c bd 10 17 28 bd 7d d6 92 3c 8f b0 1f 3d
       -0.06842019 -0.04103762 0.017924542 0.03898674
0002f0 23 ef 85 be 0f 49 1b be c2 87 83 be 30 72 96 bd
       -0.2615901 -0.15164588 -0.25689512 -0.07345998
000300 22 0f 18 be f0 0a a3 bc b3 d7 14 3e 85 ea f0 bd
       -0.14849523 -0.019902676 0.14535408 -0.11763481
000310 38 ff 9c bd 26 51 16 be e5 4b 89 3d 70 93 04 3d
       -0.076658666 -0.14679393 0.06703929 0.03236717
000320 cd c5 64 be 80 aa 9c bd a3 9c 88 bc 41 07 1f be
       -0.2234108 -0.07649708 -0.016676253 -0.15530111
000330 1e 9f 0c be 40 34 f1 bd 89 45 2a 3d af 14 76 be
       -0.13732573 -0.11777544 0.04157022 -0.24031328
000340 c8 6f 42 3d 72 b3 ad 3c e9 80 1e bd e9 35 4d 3e
       0.047469884 0.02120373 -0.038697157 0.20040096
000350 dd 92 b7 3d 14 8a 80 bb 6a cf a1 bd a8 81 0e bf
       0.08963559 -0.00392271 -0.07900889 -0.5566659
000360 da e3 0f be c2 38 04 3c d5 35 b2 3d b9 bb 04 bd
       -0.14051762 0.008070173 0.08701674 -0.03240559
000370 50 ff 6c bd 8e de b7 3c dc 8c 86 3d f9 c2 16 be
       -0.057860672 0.02244499 0.065698355 -0.14722814
000380 42 12 b4 bd 2c ec 39 be 26 93 8b 3d 65 55 19 bc
       -0.08792545 -0.18156499 0.06815176 -0.009358739
000390 7c ae 33 bc da f4 10 be 2d 94 87 3a 0d b1 bc 3b
       -0.010966893 -0.14155903 0.0010343842 0.005758411
0003a0 69 7d 95 be 9e c3 40 3d b1 ea 35 3d a9 e6 5a 3e
       -0.29197243 0.047061555 0.044413272 0.21377052
0003b0 d6 b1 a0 be 50 47 e5 bc cb b5 ca bb 0b ad a0 bd
       -0.31385678 -0.027988106 -0.006186222 -0.07845505
0003c0 48 63 21 bd 0b 07 7c 3c 8f 3b d4 3c 19 c5 c4 bd
       -0.039401323 0.015382539 0.025907306 -0.09607906
0003d0 94 68 6d bd c6 20 b4 bc dc cd f9 3b e8 3c 5c bb
       -0.05796106 -0.021988284 0.0076234173 -0.003360564
0003e0 a2 5b cd bc 77 68 3d 3e 3f e3 89 bd 09 39 c7 bc
       -0.025068108 0.18496881 -0.06732797 -0.024319189
0003f0 0b 1d 13 be 6b a1 81 bc 1f 6f 02 3e b6 bd b7 bd
       -0.14366548 -0.01582404 0.12737702 -0.08971731

critic.2.bias f4 [256]
000000 6b dc 17 bd 3d 4a 29 bf c0 f4 4a be 18 4f 7b bd
       -0.03707544 -0.66128904 -0.19819927 -0.061354727
000010 ce 4a 01 bc e4 c4 f2 bd f1 4d 83 be ca 78 7d be
       -0.00789137 -0.1185396 -0.25645402 -0.24753109
000020 68 a1 c5 bd fe bb f8 3e e3 72 c0 bd db 78 c7 3a
       -0.096499264 0.48580927 -0.09396913 0.0015218513
000030 92 26 0a 3e 48 94 ee 3e 7f e6 33 be 6f 31 c1 bd
       0.13491276 0.46597505 -0.17568396 -0.09433257
000040 b0 8f f4 3e 58 f2 47 be 62 9d 04 be b9 2a 57 3e
       0.47765875 -0.1952604 -0.12950662 0.21012391
000050 ce e3 44 bd a9 02 48 be 5d 74 29 be 6a 34 2a bd
       -0.048068814 -0.19532265 -0.16548295 -0.041553892
000060 aa 18 6c be 15 61 a2 3e a1 e0 0a 3f a2 dc 77 be
       -0.23056284 0.31714693 0.54249007 -0.24205258
000070 3c 22 e3 bd d8 dd 6c bd ff fc 0e bd 1a 5a 98 bd
       -0.11090514 -0.057828754 -0.034909245 -0.074390605
000080 c3 c0 b1 bd 94 98 44 3c 9f ab 64 bd 82 18 02 bd
       -0.086793445 0.011999268 -0.055827733 -0.031761654
000090 96 e5 e9 bc 40 ca 3d be 09 18 11 3a f2 2b 4a 3d
       -0.028551858 -0.18534184 0.00055348926 0.049358316
0000a0 62 cd 09 bc f1 3a 82 bc ae 55 5f bd e4 df bd 3c
       -0.0084107835 -0.015897246 -0.05452507 0.023178048
0000b0 9c f7 15 3d bc 20 5c 3f fb 43 33 3e 3f ed ae be
       0.03661309 0.8598745 0.17506401 -0.3416538
0000c0 76 d4 cf bc 7a 17 35 bd b4 0e 9a bb c6 8d a5 3b
       -0.025369864 -0.044211842 -0.00470146 0.005052301
0000d0 be 32 83 bd 15 31 16 3f 2f ec 2c 3f a7 e7 86 bd
       -0.06406163 0.58668643 0.6754789 -0.06587153
0000e0 e0 5b b5 3e ee 5f b9 3e 90 cb c1 bc 59 55 b9 bd
       0.35421658 0.36206 -0.023656636 -0.09049482
0000f0 ca 6c e6 3e a0 62 3d 3c 75 74 77 bb 70 18 cc bc
       0.45004874 0.011559159 -0.0037758623 -0.024913996
000100 31 61 28 be 51 a9 98 bd 8d 7d 16 be 58 55 2b be
       -0.16443326 -0.074541695 -0.14696331 -0.16731775
000110 b9 32 c5 bd f1 a1 bb 3e fd a3 8a bd 0b 87 10 be
       -0.09628815 0.3664699 -0.067695595 -0.14114015
000120 b9 30 05 be c2 76 01 bd b5 79 8a be d1 87 cb 3e
       -0.13006867 -0.031607397 -0.2704598 0.39752057
000130 36 a8 d6 bd fd 75 e4 bc 33 d8 85 3c 47 35 36 be
       -0.104813024 -0.027888292 0.016338443 -0.17793761
000140 a1 87 64 be 23 39 25 3a 85 76 6d bd 41 80 3d be
       -0.22317363 0.00063027645 -0.057974357 -0.18505956
000150 5a dc 7e be 1b b4 0f bd d3 19 b6 bd d7 8b 87 bd
       -0.24888745 -0.03508387 -0.08891644 -0.06618469
000160 dd 80 91 3e f8 da a8 bd 44 d8 d4 3e 6c d8 76 3e
       0.28418627 -0.0824489 0.41571248 0.24105996
000170 88 8e ec bc 66 1a 5b be f2 b6 1b 3f 00 ad 49 3e
       -0.028876558 -0.21396789 0.6082603 0.196949
000180 4a 49 ff bd 5f 25 f8 bd 82 2c 23 be 1d 56 eb 3d
       -0.12465151 -0.12116503 -0.15934947 0.11491034
000190 35 8d 7b be 76 d0 90 bd 08 75 2b 3f 98 f9 48 3f
       -0.24565585 -0.07071011 0.6697545 0.7850585
0001a0 ed 9a 8c 3e 39 08 23 bc bb 74 29 be 2b 4d f2 bd
       0.2746195 -0.009950691 -0.16548435 -0.11831125
0001b0 4c f8 8a 3d d5 ba 34 be a4 f1 1b bd a6 2c 0d be
       0.0678564 -0.17649396 -0.038072243 -0.13786563
0001c0 39 ea 03 3f b7 41 ab 3e 0d 33 a7 bd 6a 24 99 bb
       0.5152927 0.33448574 -0.08164034 -0.0046735303
0001d0 75 67 11 be b9 13 32 be 1f f0 48 bd e9 cd d1 bd
       -0.14199622 -0.17390336 -0.049057122 -0.10244352
0001e0 cb 30 2e be cd 11 7d bd 7f eb 39 be 6c 68 e0 3c
       -0.170108 -0.061784554 -0.18156241 0.027393542
0001f0 96 7a f5 bc 84 4b 34 be 70 b1 cf 3e 58 cb 1b bc
       -0.02996568 -0.17606932 0.40565062 -0.00950893
000200 00 23 1b 3e 7d 1c b6 bd dc 2c 1f 3e 43 57 f0 3b
       0.1515007 -0.088921525 0.15544456 0.007334621
000210 32 1f bb be 3c 48 c8 3e 77 59 d8 3e f7 a7 80 bd
       -0.36547238 0.3911761 0.42255756 -0.06282037
000220 3f 12 12 3f dd 5a a6 3e 8a 0f 7c bd bb d0 b0 3d
       0.5705909 0.32491198 -0.061538257 0.08633562
000230 1c d9 5d bd d6 16 8b bd 21 48 c0 3e 52 11 c3 bc
       -0.05416213 -0.06791465 0.3755503 -0.02381197
000240 56 d5 1b be c9 12 24 be e0 25 42 bb a7 04 79 be
       -0.152181 -0.16022791 -0.0029624626 -0.24318181
000250 7e 1f 12 be 0c 81 15 be 17 1c ef bd 86 71 58 bc
       -0.14269826 -0.14600009 -0.116752796 -0.01321066
000260 e5 26 e0 bd cf 31 0a be 0a d4 0b be 3a ec 69 be
       -0.109449185 -0.13495563 -0.13655105 -0.2284402
000270 cd 94 10 be b5 8f be 3e 00 26 4f bd c9 e5 05 3d
       -0.14119263 0.37219015 -0.05057335 0.032689843
000280 9d ea c2 be 2a c3 18 3f f9 fd bc be d0 a6 9d bd
       -0.3806962 0.59672797 -0.36912516 -0.076978326
000290 bd b9 1d bc 43 54 3e 3f 98 9d 4c bd 0a d7 43 bd
       -0.009626803 0.74347323 -0.04995498 -0.0478125
0002a0 84 a6 05 be 1c ed 56 3e 4e d8 8e 3e 39 b6 2e 3e
       -0.13051802 0.20988888 0.27899402 0.170617
0002b0 27 10 cd bc 91 22 1f be ad 5b f1 bd 13 f1 0a bf
       -0.025032116 -0.1554053 -0.11785064 -0.542741
0002c0 25 93 a7 bd f8 85 be bd 41 fc ed bd ca 64 bf 3e
       -0.081823625 -0.09302896 -0.11620379 0.37381583
0002d0 af b9 f2 3e eb 52 66 bd b8 21 49 be 35 ed e6 bc
       0.4740729 -0.05623142 -0.19641769 -0.028189281
0002e0 8c 7b 63 3d 36 fe 03 be dc 81 da bd bb 8f 1d bf
       0.055537745 -0.12889943 -0.106693 -0.6154744
0002f0 cc 23 71 bd 05 47 af 3e 42 a8 df bd fe 8f ae bd
       -0.05887203 0.3423387 -0.109207645 -0.08523558
000300 c2 ff b3 3e 64 e4 02 bd 25 b1 4f 3f d9 a0 93 bd
       0.35156065 -0.03195609 0.81129676 -0.07208414
000310 9f dd 86 be 78 b4 03 3f a4 1f 57 be e5 66 a5 3e
       -0.26340958 0.5144725 -0.21008164 0.32305065
000320 35 d1 00 bd 33 d8 90 3e fa 59 0d bf 11 5c 96 bd
       -0.031449515 0.28289947 -0.5521542 -0.07341779
000330 50 96 17 be 41 05 b1 3e cc ad 25 be ec ce 0e be
       -0.14803433 0.3457432 -0.1617958 -0.13946122
000340 2f 60 43 bd ec 40 06 3f 0e 3f 10 be 28 61 dd bd
       -0.04769915 0.5244281 -0.14086553 -0.10809547
000350 28 83 e3 3e 0d 7d 73 be c9 70 0e bd 14 5c 16 3f
       0.44436002 -0.23778172 -0.03477553 0.5873425
000360 aa 91 13 be 8a 3e 3b 3f 2c 87 b8 bd 1f 0a bd bd
       -0.14411035 0.731423 -0.09010157 -0.09230446
000370 dc 5e 3c be c8 39 59 3f 08 ef 07 3f f1 ad a2 bc
       -0.18395561 0.8485379 0.5309911 -0.019858332
000380 c8 d4 86 be 0b 48 36 be 97 65 00 3f 6d 2a c3 3e
       -0.26334214 -0.1780092 0.50155014 0.38118306
000390 9d 2f 45 bc 92 be 47 be 71 7f 11 be 60 8b c1 3d
       -0.012035278 -0.1950629 -0.14208771 0.09450412
0003a0 e3 e0 4c be 40 f4 11 be fc e2 c2 3e fd b6 cc bd
       -0.20007662 -0.1425333 0.380638 -0.0999584
0003b0 13 4f 29 3f 99 04 fc bd 9a a0 80 be d3 03 96 bd
       0.6613628 -0.123055644 -0.2512253 -0.07324948
0003c0 dd d4 8f 3e 90 c4 96 bd 2d 8c 68 bd 02 02 8b 3e
       0.2809209 -0.0736171 -0.056774307 0.2714997
0003d0 f3 cf 10 be 06 74 56 3f 58 ac eb 3e 0e 18 80 be
       -0.14141826 0.8377079 0.46029925 -0.25018352
0003e0 01 9b c3 3e b6 dd 95 3d e8 11 dd bd 9b 6a 0b 3f
       0.38204196 0.07317679 -0.10794431 0.5445954
0003f0 1e ed 17 3f 5b ed 43 be 30 bd 0a 3c ba 91 c6 bd
       0.5934619 -0.19133513 0.008467957 -0.09695764

critic.4.weight f4 [1, 256]
000000 da 6e e3 be cb dc 64 be 9a 97 ca bd 61 6e 63 be
       -0.4442051 -0.22349851 -0.09892197 -0.22210075
000010 66 d9 1a 3e 37 bc 29 bf c6 3b 32 be a0 22 2a be
       0.15121993 -0.6630282 -0.17405614 -0.16614771
000020 19 52 5c be 76 22 a7 3d b7 51 86 bd 52 97 ba bc
       -0.21515693 0.0816087 -0.065585546 -0.022777233
000030 f1 b8 74 3d 40 83 11 3e e4 ab 14 be 37 db 47 3e
       0.059746686 0.14210224 -0.14518696 0.19517218
000040 fe c6 03 3e 98 f7 8e be 7c d3 4f be e5 56 d6 bd
       0.12868878 -0.27923274 -0.20295519 -0.104657926
000050 2d 63 3d bf 98 0d 94 be 1b fe 62 be 80 55 2a 3e
       -0.73979455 -0.2891662 -0.22167246 0.16634178
000060 f3 ca a2 be 05 c6 d0 3d 91 99 12 bf ab 52 03 be
       -0.31795463 0.10194019 -0.57265574 -0.12824504
000070 17 72 2f be b5 60 83 bc 30 d4 02 3e d6 3d 6e bd
       -0.17133366 -0.016037324 0.12776256 -0.05816444
000080 bc 25 da bc 3d 2d 09 3e 3d ec c1 be d4 bc a8 be
       -0.026629321 0.13396163 -0.37875548 -0.32956564
000090 95 d7 37 3e bc 56 0b bd 74 be 52 3e e1 51 19 3e
       0.17953332 -0.034018263 0.20580465 0.1497264
0000a0 6c 3f de 3d 8f c2 9f ba 96 e6 dd bc bb 1d 00 3e
       0.108519405 -0.001218872 -0.027087491 0.12511341
0000b0 96 ca 29 3e 3e 11 11 3d 85 5d a1 3d 81 d9 ee be
       0.16581187 0.035416834 0.078791656 -0.46650317
0000c0 53 ad 33 bd 3c 18 6f be 23 4f d4 be 16 80 2f be
       -0.043866467 -0.23349088 -0.41466627 -0.17138705
0000d0 0b 45 b3 bd b9 e5 87 3d 43 1b 01 3d 70 2b b5 be
       -0.08753403 0.06635613 0.03152014 -0.35384703
0000e0 c2 71 8e 3d 60 88 65 3d 1a cf 87 3c 22 76 b0 be
       0.06955291 0.05603826 0.016578246 -0.34465128
0000f0 8e 7c a1 3d 35 60 a9 3d 7b a7 6d 3e cf 30 ab 3d
       0.07885085 0.08270303 0.2320842 0.08358919
000100 40 38 a8 be a6 b1 87 be c5 e7 10 be 87 37 36 be
       -0.32855415 -0.26502723 -0.14150913 -0.1779462
000110 24 ff 80 3d aa 95 d4 3d af 83 14 3e ad 97 bb be
       0.06298664 0.10380109 0.14503358 -0.36639157
000120 e9 c0 c0 be 32 77 8a bd 71 fb 90 be 3e e7 29 3d
       -0.3764718 -0.06761016 -0.28316835 0.041480295
000130 0c be 15 3e 2d fe 18 3e 22 99 d3 3d d7 89 3b be
       0.14623278 0.1494071 0.10331942 -0.183143
000140 4e b8 e9 be ab 2a 01 bf 64 6f b7 3d c7 74 70 be
       -0.45648426 -0.5045573 0.08956793 -0.23482047
000150 0b 5d 28 bf 31 af 26 3e ba bd d7 be ef bf b9 3c
       -0.6576697 0.16277768 -0.42136937 0.022674529
000160 78 7a 8c 3d 85 02 05 3e cb dc 23 3d ad 64 28 be
       0.068592966 0.12989242 0.040005486 -0.16444655
000170 26 46 59 be 8c 19 90 be 83 81 3a 3d 81 55 fd be
       -0.21218166 -0.2814449 0.04553367 -0.49479297
000180 41 f1 0e be 8e c1 03 be ed e8 c2 be b4 bd fb 3d
       -0.13959219 -0.12866804 -0.38068333 0.122920424
000190 38 63 96 be 6a ad e4 3d bb 7c 69 3d f4 95 5f 3d
       -0.29372573 0.111658886 0.057003718 0.054586366
0001a0 c2 a7 5e 3d 0e cb 52 3e d2 c3 7f be 23 d1 20 bd
       0.054359205 0.20585272 -0.24977043 -0.03926195
0001b0 b7 3c 10 3d 39 83 13 bf 1e 12 87 be c5 55 10 bf
       0.035214152 -0.57622105 -0.2638101 -0.56380874
0001c0 87 80 cc 3c d0 0f 9d 3d 40 60 95 be ac 50 d1 be
       0.02496363 0.076690316 -0.29174995 -0.4088186
0001d0 a2 04 17 bd 0c 3c 5c be d9 d9 63 be 0f 50 a3 bd
       -0.036869653 -0.21507281 -0.22251071 -0.07974254
0001e0 34 c3 32 3e ed b5 0b 3e 22 1e 27 3e e5 00 e1 3d
       0.17457277 0.13643618 0.16320089 0.10986499
0001f0 c9 a0 8e be 7e 49 2c bf f0 77 aa 3d 65 7c 9a bc
       -0.27857044 -0.6729964 0.083236575 -0.018858144
000200 b9 f2 ce bd 9d 54 a9 3d 47 8c 39 3e b4 bd fc be
       -0.101048894 0.08268092 0.18119918 -0.49363482
000210 7d 25 18 be 95 55 55 3d 11 5b c4 3d 0c 2d b8 3c
       -0.1485805 0.05208357 0.09587682 0.022482418
000220 81 6b 8a 3d ed 1c 68 3b 85 4e d0 be 53 9b 09 3e
       0.06758786 0.0035417632 -0.40684906 0.13438158
000230 20 a5 c4 3d 9f 2c 05 bd 5f 2a 13 3e 68 f2 c6 3d
       0.096018076 -0.032513257 0.14371632 0.09714204
000240 71 98 57 bf 68 3b 9f be e0 3b dc be c7 47 13 be
       -0.8421698 -0.3110001 -0.4301443 -0.1438285
000250 15 61 ae be 2e a5 85 be 50 95 a3 be 31 ce 10 3e
       -0.34058443 -0.26102585 -0.31949854 0.14141156
000260 31 6f d7 3d 59 ed cf bd a5 2d 25 3e 2f ff 8a be
       0.10519255 -0.10152692 0.16130693 -0.27147815
000270 85 06 c6 bd c8 f5 31 3c 20 98 ce 3d 36 36 c5 be
       -0.09669212 0.0108618215 0.10087609 -0.38517922
000280 c5 aa 0d bf b1 e3 9b 3d 93 41 c9 bd dd 88 95 3d
       -0.553387 0.07611788 -0.098269604 0.07301495
000290 73 6a ef 3d 7d ce 3a 3e b0 c4 d6 3c 76 34 74 3d
       0.116902255 0.18242832 0.026216835 0.059620343
0002a0 84 fc 38 3c 0a 95 04 3e f7 18 99 3e 7c 67 9a 3e
       0.011290673 0.12947479 0.2990186 0.30157077
0002b0 cc 02 80 3d 67 91 ae 3d b5 a6 aa be c6 3e c2 be
       0.062505335 0.08523827 -0.33330312 -0.37938517
0002c0 10 70 30 bc e2 dc db be 89 a4 9b be a6 6b 6e 3d
       -0.010768905 -0.42941958 -0.30398968 0.05820813
0002d0 19 03 ba 3d bb 16 b5 be 5d 30 95 be d8 a6 c7 bb
       0.09082622 -0.35368904 -0.2913846 -0.0060928874
0002e0 11 82 f3 3d 12 97 c0 bd 8c 1e 07 bf 0e 1d 5b be
       0.118900426 -0.094038144 -0.52780986 -0.21397802
0002f0 42 c7 c2 be 72 d4 52 3d 4c 7b 04 be 63 f1 c0 3d
       -0.38042647 0.051472135 -0.12937659 0.09421041
000300 94 0f d1 3d cd f6 4f 3d 30 f1 49 3d 49 3c c2 be
       0.102080494 0.050772477 0.04930228 -0.3793662
000310 0b d1 b6 bd 42 3d cd 3b ac 99 4f be 7d 1a 4e 3d
       -0.089265905 0.006263406 -0.20273465 0.05031823
000320 a4 e3 dd be 4d 4b 4f 3d 3b 07 9a be 79 5f a3 be
       -0.4333774 0.05060892 -0.3008364 -0.31908777
000330 8d 39 3e 3e 8a 22 d9 3d 4d f1 9b be ce 13 5d 3e
       0.18576641 0.10602291 -0.30457535 0.21589586
000340 7f 59 b1 be 01 83 81 3d c2 4f 0b be 8e ff ce 3d
       -0.34638593 0.06323815 -0.13604644 0.10107337
000350 86 39 86 3d fd 38 e0 bd aa 12 0b 3e 58 75 07 3d
       0.065539405 -0.1094837 0.13581339 0.033070892
000360 6c f3 82 be 66 da 1e 3d 00 51 0f 3d cf c7 fb be
       -0.2557634 0.0387825 0.034989357 -0.4917588
000370 87 5b 30 be 29 7f 50 3d 1e 01 1d 3d f0 79 bd bd
       -0.17222415 0.05090252 0.038331144 -0.09251773
000380 4f f8 83 be 5f 92 79 be f3 b2 c5 3d b5 77 b3 3d
       -0.25775382 -0.24372242 0.096532725 0.08763067
000390 f2 98 d1 3d c0 3a 75 be 65 ba 60 be d2 40 55 3e
       0.1023425 -0.23948193 -0.21946104 0.20825508
0003a0 3d 21 b2 be a4 6d 23 be c0 84 97 3d cb b9 46 3e
       -0.34790984 -0.15959793 0.07398367 0.19406812
0003b0 87 b3 95 3d 72 2c 68 be 0d 61 85 be 0e cb 15 3d
       0.07309633 -0.22673205 -0.26050606 0.0365706
0003c0 5e e9 f5 3d 15 af ee be 71 1d 0f 3e a8 48 0a 3c
       0.12007402 -0.46617952 0.13976075 0.008440174
0003d0 30 dc a2 3d 22 0b 4f 3e 64 3f b7 3d 77 4e 82 be
       0.07952154 0.2021909 0.08947638 -0.2545049
0003e0 ab e5 39 3d 32 d2 b0 be 69 83 be be d8 47 a9 3d
       0.045385044 -0.34535366 -0.37209633 0.08265656
0003f0 9e 95 9a 3d 32 db 9a bd ef 38 af 3d a0 90 80 bc
       0.075480685 -0.075613394 0.08555781 -0.015693963

actor.0.weight f4 [256, 33]
000000 3b 3e 28 3e 08 b7 e7 3e 1b d4 c3 be 11 c6 2d be
       0.16429989 0.4525683 -0.3824776 -0.16970088
000010 a6 5f 82 bd e4 97 95 be 94 85 b0 bd 54 d1 65 be
       -0.063659 -0.29217446 -0.08619228 -0.22443134
000020 8e 63 d1 be 0d 6c dd 3e f1 f8 b4 3e 37 3c 50 3f
       -0.40896267 0.432465 0.35346177 0.8134188
000030 53 66 bd 3e 5e a7 46 3e 5e f2 04 3e 7a bc d1 bd
       0.3699213 0.19399783 0.1298308 -0.10241027
000040 00 3f ad bd 2a e4 a0 3e f4 ad 8b bf 4f e9 db be
       -0.08459282 0.31424075 -1.0912461 -0.42951438
000050 51 0b a6 3e ea a2 bd be d2 1b 7c 3e ba 38 09 3e
       0.3243051 -0.37038356 0.24619988 0.13400546
000060 01 34 55 be df 1a e9 bd 8b b0 5f be f3 29 83 3e
       -0.20820619 -0.113820784 -0.2184469 0.25617942
000070 a8 b2 9c bd 9e b5 bb bd 93 9a d8 be 6d de a5 bd
       -0.076512635 -0.091655 -0.4230543 -0.08099065
000080 72 d4 6c 3e 2b 7d d8 3d 72 68 d5 3e ed 3b d7 3e
       0.23127916 0.10570749 0.41681248 0.42037907
000090 92 98 09 bf be e0 50 be 44 99 ba 3e be 1b 23 3e
       -0.5374843 -0.20398232 0.36445057 0.15928552
0000a0 1e 9d 97 3e 75 06 e2 bd 41 a4 85 bd b0 46 17 be
       0.29612058 -0.11036388 -0.065254696 -0.14773059
0000b0 1b 2a af 3e 65 73 ad be db ed 9f 3e fa dd 56 3e
       0.3421181 -0.33877102 0.31236157 0.20983115
0000c0 11 d1 d2 bc 76 e8 02 bf 69 38 ce 3d c5 8c 05 bf
       -0.025734456 -0.5113596 0.10069353 -0.5216792
0000d0 fc 15 cb 3e 5f 2f f7 be 33 3e 10 bf 80 90 2c bd
       0.3966521 -0.4827833 -0.5634491 -0.042129993
0000e0 79 b3 b2 3e c9 7e 32 3e 50 07 90 3d 23 1b 11 bd
       0.34902552 0.17431177 0.07032645 -0.03542627
0000f0 20 4f 68 3e c0 c0 6a be 86 95 f0 bd 08 a4 97 be
       0.22686434 -0.22925091 -0.11747269 -0.29617333
000100 98 4f a8 bd 19 14 6c bb 4f 8b 8b 3e 70 ca 8b 3e
       -0.08218306 -0.0036022721 0.27254722 0.27302885
000110 e9 fa 57 bc 81 ad 07 be b4 c6 d8 3d 45 04 25 bf
       -0.01318238 -0.1324978 0.105847746 -0.6445964
000120 96 2c b4 bd 6e aa 88 3e 21 9d 14 3e 79 89 75 3d
       -0.087975666 0.26692528 0.14513065 0.059945557
000130 bd 52 83 be a4 3a 59 3e f6 68 4c be 0f 36 87 bc
       -0.25649062 0.21213776 -0.19961914 -0.01650527
000140 ac 27 06 3f 15 4d 7c be c4 dc f7 bd 9f 31 5a bf
       0.52404284 -0.2463878 -0.121026546 -0.85231966
000150 32 73 44 bf 35 fb 29 bf 0a a2 59 3e 71 12 91 bd
       -0.76738274 -0.66398937 0.21253219 -0.070835955
000160 e3 2d 03 bf 5a 52 3e 3e 6e ef e0 3d 1f 17 b2 3d
       -0.5124189 0.18586102 0.109831676 0.08695816
000170 08 77 a1 3e a0 0c 12 3e bf b8 2d 3e 86 2f 2c 3e
       0.31536126 0.14262629 0.16965006 0.16815004
000180 1a 97 f9 bb aa d3 27 3e 5e 7d 19 3e 0e 69 08 be
       -0.0076168897 0.16389337 0.1498923 -0.13321325
000190 a6 c5 94 3e c2 40 bd 3d e5 43 10 bf c5 82 5f be
       0.29057044 0.09240867 -0.563536 -0.21827228
0001a0 3a c5 81 3e 88 1a 59 bd 1f 90 37 3e a8 41 80 3d
       0.25345784 -0.053003818 0.17926072 0.06262523
0001b0 fe 4b 65 3d 13 0a 91 3d 2a 3e d2 bd 8d 6f fd be
       0.055980675 0.07082 -0.10265763 -0.4949917
0001c0 73 71 94 bc 30 10 06 3f f9 79 92 3e 73 b4 c2 bd
       -0.018120503 0.5236845 0.28608683 -0.09507074
0001d0 5b dc 19 bf f8 99 ee be 65 85 f0 be 85 a7 0e be
       -0.6010186 -0.46601844 -0.46976772 -0.13931091
0001e0 e2 5b fe 3e 72 93 d6 3c 17 24 bf bb 6c 01 69 be
       0.49679476 0.026193354 -0.0058331597 -0.22754449
0001f0 56 36 d4 bc 3e 97 a9 bc c8 e0 1f 3e 05 0c c6 3d
       -0.025904816 -0.020702 0.15613091 0.09670261
000200 54 30 ba 3d 1d 95 8d be 4c 2c a9 3d 29 29 14 bf
       0.09091249 -0.27652827 0.08260402 -0.57875305
000210 dc 7b a9 be 43 77 11 3f de 8a 7f 3e a8 c3 de be
       -0.3310231 0.56822604 0.24955317 -0.4350865
000220 1a a1 80 bd 79 5e 55 3e 66 4f a6 3e 12 53 15 3d
       -0.06280728 0.2083682 0.3248245 0.036456175
000230 a5 24 e9 3e da 1f b3 3c a5 50 29 3e d9 ba aa 3e
       0.4553577 0.021865774 0.1653467 0.33345678
000240 8a 2f 18 bd 31 54 0e be 57 61 1d 3f 6d 85 bb 3e
       -0.03715471 -0.13899304 0.61476654 0.36625233
000250 76 00 04 3e 55 20 94 3e 9a 97 da 3e d5 42 62 3d
       0.12890801 0.28930917 0.42693788 0.055239517
000260 a7 0c a5 3e 6a b5 81 be 6c 06 0c 3e 73 4a 62 3d
       0.32236215 -0.2533372 0.13674325 0.05524678
000270 02 18 09 3e 85 56 b8 3d 34 a6 75 3e 39 e9 c2 3e
       0.13388065 0.09000877 0.23989183 0.3806856
000280 a0 15 49 be 89 04 d8 bd ad 95 b6 be d8 df 50 3d
       -0.19637156 -0.1054774 -0.3566107 0.050994724
000290 19 9d 4f 3e ba 30 55 3d 6c 8b 93 3e 73 b2 fd 3e
       0.20274772 0.052048422 0.28817308 0.49550208
0002a0 fc a3 88 be 44 f6 91 3b ba 08 b3 be 72 f7 c2 3e
       -0.2668761 0.004454406 -0.34967595 0.3807941
0002b0 c8 b5 86 3e 99 a5 e7 3d e9 5d 41 bd 53 f6 99 3b
       0.26310563 0.11310882 -0.0472087 0.0046985536
0002c0 c6 56 fb be f7 13 a1 bd 89 26 98 3d 86 84 81 3e
       -0.4908964 -0.07865136 0.07429225 0.2529642
0002d0 ba 48 30 3e 09 95 b7 3e 99 b5 bb be 37 11 60 be
       0.17215243 0.35855892 -0.36661986 -0.21881567
0002e0 c2 15 f0 be ac 3f cc be 54 9a 50 3d 2d 07 8c bd
       -0.468916 -0.39892328 0.05092843 -0.06837306
0002f0 78 85 36 bf da e9 09 be 67 3f 3c 3e f7 fb 39 3e
       -0.7129741 -0.13468114 0.18383561 0.18162523
000300 b3 d5 58 3e 22 95 96 be 13 58 26 be 41 d2 3a be
       0.2117527 -0.29410654 -0.16244535 -0.18244268
000310 6f 21 2f be 61 fb fc bd 8a 81 37 3d c3 c7 ea 3e
       -0.17102598 -0.12352634 0.044801272 0.4585553
000320 82 e8 af bc 65 50 01 bf 89 70 14 3e ca 0a 97 be
       -0.021473173 -0.505133 0.14496054 -0.2950042
000330 1a fa 79 bd f3 7a 2d be e9 9a 2a bc e1 13 8f 3d
       -0.06102953 -0.16941433 -0.01041291 0.069862135
000340 9a fa 64 3e 25 9c 87 3e 0a 71 ca bd f1 b1 71 be
       0.22361222 0.26486316 -0.09884842 -0.23603036
000350 71 0e 03 3f 62 a2 64 be c7 03 4d be 37 3f 0e bf
       0.5119391 -0.22327569 -0.20020972 -0.5556521
000360 91 c8 e8 3e 74 bc 1a 3f 26 0f 21 be 8a b7 c7 3d
       0.4546552 0.60443807 -0.15728435 0.09751804
000370 58 24 16 3e 79 76 ce 3e fd 24 3a 3e 93 34 25 be
       0.14662302 0.40324762 0.18178172 -0.16133337
000380 1f 91 80 3d 61 7e 07 3e c2 60 53 3c 80 db dd bb
       0.0627768 0.13231803 0.012901487 -0.006770551
000390 08 e8 b9 be ae 7b 63 bd 56 89 c3 be 10 bf 77 be
       -0.36309838 -0.055537872 -0.38190717 -0.24193978
0003a0 d4 f3 4b 3e 47 5d 9b be 53 9f d9 bd 2a d1 44 be
       0.19917232 -0.30344602 -0.10626092 -0.19220415
0003b0 33 12 ba be 4a 62 be be b6 83 de bc b9 25 ba 3d
       -0.3634201 -0.37184364 -0.027162414 0.09089226
0003c0 ba ee 09 be 60 73 c4 3d a0 32 76 3e 15 77 10 3e
       -0.13469973 0.095923185 0.2404275 0.14107926
0003d0 cf 87 4f 3d e5 04 e2 3d 0f 7a 8c 3c 68 20 b8 bd
       0.050666627 0.1103609 0.017148046 -0.08990556
0003e0 c7 9d 0d be e0 c0 0e 3f d4 1c 9b bd 21 d7 9b be
       -0.13829719 0.55763054 -0.07573858 -0.30437568
0003f0 61 e8 ff 3e aa 86 ad be 0b 52 f6 3e 3c 49 9b 3e
       0.4998198 -0.33891803 0.4810947 0.3032931

actor.0.bias f4 [256]
000000 c3 80 d6 be ac d8 f5 be 98 85 46 be 10 e2 57 be
       -0.41895112 -0.4801687 -0.193869 -0.2108233
000010 27 95 0c bf d8 dc 65 bd 72 61 c6 be 67 71 6b be
       -0.5491509 -0.056118816 -0.3874622 -0.22992478
000020 64 be cf be 1b d2 5a be b3 18 e2 be ef 5c c1 bd
       -0.40574944 -0.21369211 -0.4415947 -0.09441554
000030 99 52 79 be e0 54 9f be b3 0e cd 3d c0 d9 b1 be
       -0.24347915 -0.31119442 0.10012569 -0.34736443
000040 18 17 9b be 5d 6d e4 3d 57 6b 80 be 5f 8e ae be
       -0.30291057 0.11153672 -0.25081894 -0.34092996
000050 5a 56 63 be 15 7b eb bc eb c1 30 bd eb 72 f4 bd
       -0.2220091 -0.028745214 -0.043153685 -0.11935981
000060 e5 fe 14 be 65 98 9b be 39 22 c4 3d a3 52 59 bd
       -0.1455036 -0.30389705 0.0957684 -0.053057324
000070 4d 16 0c be 4b 5e 83 be 75 89 89 be 9a 5a 26 bf
       -0.13680382 -0.25657877 -0.26862684 -0.64981997
000080 d0 d2 66 be a3 6f 0c bf c5 c4 8a be 20 2a cc 3d
       -0.22541356 -0.54857844 -0.27103248 0.09968972
000090 c7 ca 0d bf 5c 7f bd be 6c 52 ab be 51 5e 97 be
       -0.5538754 -0.3701123 -0.3346132 -0.29564145
0000a0 a4 e6 57 be 63 11 c0 be 23 0c b1 be ff 4c d9 be
       -0.21084076 -0.37513265 -0.34579572 -0.42441556
0000b0 81 ca 60 be 43 6c 10 be 73 fc 91 bd 5d 50 08 bf
       -0.21952249 -0.14103799 -0.07128229 -0.53247625
0000c0 50 1e 53 be be 0f bc be 10 7c 78 be 7a 74 50 be
       -0.20617032 -0.3673076 -0.24266076 -0.20356932
0000d0 0a 9c 54 be 50 f2 98 be bb 75 c5 bd 49 46 e0 be
       -0.20762649 -0.2987237 -0.09641596 -0.43803623
0000e0 ec 7c 50 be 31 85 d4 be d7 4c 20 be 8b 10 56 be
       -0.20360154 -0.41507867 -0.15654312 -0.20904748
0000f0 8a 4c 0a be 33 69 cf 3c 65 ac c5 be c3 77 0b bc
       -0.1350576 0.025318718 -0.3860809 -0.00851244
000100 de e6 9a be d2 8e 8f be 52 99 06 be 04 6f b1 be
       -0.30254263 -0.2803865 -0.13144425 -0.3465501
000110 31 94 19 3e d1 b6 18 be 6c 55 79 be 99 24 cd be
       0.14997937 -0.14913489 -0.24348992 -0.40066984
000120 e4 a1 bc be 68 44 cb bd 07 ab 2c be 41 90 10 bd
       -0.36842263 -0.09925157 -0.16862117 -0.03529382
000130 05 c3 fe be 7d 1d 29 be 4f 77 fc bd 8f 08 d5 bd
       -0.49758163 -0.16515155 -0.12327444 -0.10402023
000140 c2 01 37 be fe 1e 26 bf 9f 36 2d be 51 38 3c be
       -0.17871764 -0.6489104 -0.16915368 -0.18380858
000150 32 fa 36 be 00 78 41 be c4 08 ca bb 3c c0 5a bd
       -0.1786888 -0.18893433 -0.0061655957 -0.053405985
000160 39 94 71 be 85 e9 d7 be ed c6 ae be 8e 10 2c 3e
       -0.23591699 -0.4217035 -0.34136143 0.1680319
000170 48 ae 9e bd 57 39 9f be 35 35 dc be 70 9d 99 be
       -0.07748085 -0.31098434 -0.43009344 -0.30002928
000180 db 38 03 bf 31 4e 93 be c4 0c 3b be c5 7f 77 bd
       -0.5125863 -0.28770593 -0.18266588 -0.060424585
000190 ef 54 b3 be f8 df 8c bd 69 4b 73 be 42 30 3b be
       -0.35025737 -0.06878656 -0.23759235 -0.18280128
0001a0 19 85 a4 be d0 3a c2 be e3 33 3a be d7 08 08 be
       -0.32132795 -0.37935495 -0.18183856 -0.13284622
0001b0 00 1f eb be 20 11 6b be 87 aa a0 be d7 a3 98 be
       -0.4592209 -0.22955751 -0.31380102 -0.298125
0001c0 44 4b 25 be 2c 47 b1 be 42 07 7f be de cf ef be
       -0.16141993 -0.34624612 -0.24905112 -0.46838278
0001d0 3f 16 d9 3d 8e 7e 00 be b3 a6 2c bd 74 4c 60 be
       0.10599946 -0.12548277 -0.042151164 -0.21904165
0001e0 de a5 f6 bc 85 4a 6d be 43 ea 16 bf 33 9d d0 be
       -0.030108389 -0.23172958 -0.58951205 -0.40744933
0001f0 f8 28 81 be 00 52 60 be f1 8d 27 bc e8 7b b8 be
       -0.2522657 -0.2190628 -0.010226713 -0.36032033
000200 19 61 ce be 4b f1 18 bf c6 a1 c0 be 76 39 a3 bd
       -0.40308455 -0.59743184 -0.37623423 -0.07969944
000210 08 bb 9d be 1a 88 6d 3d 51 50 e2 be c4 fb d2 be
       -0.30806756 0.057991125 -0.44201902 -0.41207707
000220 18 76 2d be a8 0d ff bd 84 5c 7c be c0 14 03 bf
       -0.1693958 -0.124537766 -0.24644667 -0.51203537
000230 75 db 79 bd 4c 8c e9 be ca 5b ad be e7 06 c6 be
       -0.061000306 -0.4561485 -0.33859092 -0.3867714
000240 b0 10 d6 be 40 8d 32 be c3 4e 7a be c6 f0 e2 be
       -0.41809607 -0.17436695 -0.24444108 -0.4432432
000250 ad 52 a1 be f4 24 ab be 49 b6 b1 be 99 df 89 bd
       -0.3150839 -0.3342663 -0.34709385 -0.06732101
000260 44 4a 04 3d 0b 89 ed be f4 44 06 bf 80 bd 81 be
       0.032297388 -0.46393618 -0.52448964 -0.2533989
000270 5b 7f ab be 74 bb 39 bd ae dc c3 be 2a 9c 49 be
       -0.33495602 -0.045344785 -0.38254303 -0.19688478
000280 e4 5e a5 be bd cf d7 3d 78 22 65 bd 4b 67 ac be
       -0.32298958 0.1053767 -0.055941075 -0.33672556
000290 19 c4 f8 be 27 27 61 be 0e 51 14 bf 58 f3 1a be
       -0.4858711 -0.21987592 -0.5793618 -0.15131891
0002a0 7c 7c 6d bd 74 07 5b bd 73 ce 40 be 38 81 b4 be
       -0.057980046 -0.053473905 -0.18828754 -0.35254836
0002b0 09 fc 51 be 27 5e 0c be 80 f4 d5 be 53 18 0e bf
       -0.205063 -0.13707791 -0.417881 -0.55505866
0002c0 3d b2 11 be c6 bb 4a bd ff 4b bf be d9 f4 70 be
       -0.14228149 -0.04949548 -0.37362668 -0.23530902
0002d0 62 36 12 be e9 6b 61 be bd 1e 27 be c1 f2 70 be
       -0.14278558 -0.2201382 -0.1632032 -0.23530103
0002e0 2b e8 bc be a2 4a d7 bc 2e 69 ef be e5 4a 6e 3d
       -0.3689588 -0.026280705 -0.46759933 0.058176894
0002f0 8d 26 28 be 95 f1 ee be d9 89 a4 3d 64 dd 8f be
       -0.16420956 -0.46668687 0.08034105 -0.28098595
000300 2f 9f e5 be 84 06 07 be da 6b 50 be 25 10 81 be
       -0.4484801 -0.1318608 -0.20353642 -0.2520763
000310 92 4e fc be ac f0 b1 be 24 ec 4e be ed 7a 02 be
       -0.49278694 -0.3475393 -0.20207268 -0.12742205
000320 24 bd 03 bf a7 a6 40 be ff 66 8e be d2 4d a4 be
       -0.5146048 -0.18813573 -0.27812955 -0.32090622
000330 1a da 37 bc b4 da 1a be d1 95 9a be 95 4b 90 be
       -0.011221433 -0.15122491 -0.30192426 -0.28182665
000340 f0 81 70 be 4f c4 e5 be 48 a7 6f be 76 3b b1 be
       -0.23487067 -0.44876334 -0.23403656 -0.34615678
000350 76 8c 02 3e 81 c3 bf be 94 a9 00 be d4 5b 28 be
       0.12748894 -0.37453845 -0.12564689 -0.1644128
000360 22 67 7a 3b 9a a5 9f bd df a9 a7 be cc 64 75 39
       0.0038208445 -0.07795258 -0.3274679 0.0002340257
000370 b0 1a 89 be 12 d3 35 be e4 73 6f be b8 2d 6b bd
       -0.26778173 -0.17756298 -0.23384053 -0.057416648
000380 50 db da be 0b 9f 5f be 1b 7d a5 be 4d 87 ed 3d
       -0.42745447 -0.21838014 -0.3232201 0.11598072
000390 8e 59 bb be cd 48 7d bd 76 37 31 be 4f f6 bf be
       -0.36591762 -0.061837006 -0.17306313 -0.37492606
0003a0 5a 3e d2 be 5e 8a 7a bd c9 f1 1a bf 0e 37 31 be
       -0.41063195 -0.061167113 -0.60525185 -0.17306158
0003b0 10 7b 6f be 7b bb 0e bf ae 82 23 be 02 d5 31 be
       -0.23386788 -0.5575482 -0.15967819 -0.17366412
0003c0 7f 0f 80 be 8b b2 d6 be d6 d8 ea be 36 23 5a be
       -0.25011823 -0.41933092 -0.45868558 -0.21302494
0003d0 1d 83 f0 be 02 04 53 be a6 65 40 3e 39 1c a1 be
       -0.46975031 -0.20606998 0.18788776 -0.31466845
0003e0 d8 c8 b3 bd 44 9a f8 be 56 25 91 be 8d 3f df bd
       -0.08778542 -0.48555195 -0.28348798 -0.10900793
0003f0 9d 94 b3 bd 87 49 85 be 93 98 2b be 64 cb 60 be
       -0.0876858 -0.2603266 -0.16757421 -0.21952587
